framework/axial force prediction module/lstm_64batch.pt (torch, 460226 bytes, 15 tensors)

linear1.weight f4 [200, 125]
0	0x3d47ed89	0.048810516
1	0x3d363efd	0.044493664
2	0x3d0d8cbf	0.034558054
3	0x3d82a060	0.06378245
4	0xbd0e3a32	-0.034723468
5	0x3d2007c9	0.039069925
6	0x3d786b04	0.060648933
7	0xbd7a8ab5	-0.061167438
8	0xb9d29b41	-0.00040169994
9	0x3db3c9e4	0.08778742
10	0xbd351987	-0.044213798
11	0xbd840c51	-0.06447662
12	0xbd82391f	-0.06358551
13	0x3d84525d	0.06461022
14	0x3b2500f5	0.0025177572
15	0x3daa51cd	0.083163835
16	0xbca9e599	-0.020739364
17	0xbcb0fad9	-0.021603988
18	0xbd8d3e3b	-0.06896635
19	0xbd44ccab	-0.04804675
20	0xbc675385	-0.014119034
21	0x3d3d95ad	0.04628532
22	0x3daffcaa	0.08593114
23	0x3d3bafe1	0.045822028
24	0xbd8810c7	-0.06643825
25	0xbd37e9e2	-0.044900782
26	0xbd9ee92f	-0.0775932
27	0xbdab07f8	-0.08351129
28	0xbc5c5d29	-0.0134499455
29	0x3d88a783	0.06672575
30	0xbd5dcc11	-0.05414969
31	0xbd0de0c7	-0.034638193
32	0x3d1c7cbb	0.03820489
33	0x3b327538	0.0027230512
34	0x3d5426ec	0.05179493
35	0x3da1ab49	0.07893998
36	0xbd34e6b4	-0.04416533
37	0x3d9f9904	0.07792857
38	0xbc252278	-0.010079019
39	0x3d43c415	0.04779442
40	0x3db335b4	0.087504774
41	0x3d6a83d1	0.057254616
42	0xbd95e23f	-0.07318544
43	0xbd37d2db	-0.04487882
44	0xb9b753e4	-0.00034966983
45	0x3c85229f	0.01625186
46	0xbcbf2867	-0.023334695
47	0x3c89d391	0.016824516
48	0x3c46ae63	0.012126538
49	0xbd3af045	-0.045639295
50	0xbc5a528a	-0.013325343
51	0x3d91178c	0.07084569
52	0xbd58ffc7	-0.052978303
53	0x3d4e125d	0.05031048
54	0x3d7b6a24	0.06138052
55	0x3c353ed5	0.011062344
56	0xbd519ec6	-0.05117681
57	0xbb1d32dc	-0.0023986613
58	0x3d1140ba	0.03546212
59	0xbcc829a3	-0.024433916
60	0x3d83bb1f	0.06432175
61	0x3dba1369	0.090857334
62	0x3d9db547	0.077005915
63	0x3d4f7e68	0.05065766
64	0x3d516351	0.051120106
65	0x3c270e94	0.010196347
66	0xbda5cb59	-0.08095426
67	0xbd8a0918	-0.06740016
68	0x3d4d744c	0.050159737
69	0x3d0add7b	0.033902626
70	0xbd957b46	-0.07298903
71	0x3db7a645	0.0896726
72	0x3db74a2a	0.089496925
73	0xbd13e109	-0.036103282
74	0x3bb6569a	0.005564523
75	0xbcc2b455	-0.02376763
76	0xbd8bb55a	-0.068216994
77	0xbd9a65e0	-0.07538962
78	0x3d16bb60	0.03679979
79	0xbd719c01	-0.058986668
80	0xbcd7bf66	-0.026336383
81	0xbd453345	-0.048144598
82	0x3d782592	0.060582705
83	0xbdb54998	-0.088519275
84	0x3cdb27ee	0.026752438
85	0xbc97d0a0	-0.018532097
86	0xbc66cd52	-0.014087038
87	0xbd112f99	-0.035445783
88	0x3c8fd7c6	0.017558943
89	0x3ca62d22	0.020285193
90	0xbc57078b	-0.013124357
91	0xbdb88e9a	-0.09011574
92	0x3d6071c0	0.05479598
93	0xbd2c8298	-0.04211673
94	0xbd81e91e	-0.06343292
95	0x3c976968	0.018482879
96	0x3d10d072	0.03535504
97	0x3d9fb1ad	0.07797561
98	0x3d12ca75	0.03583761
99	0xbd9f23ef	-0.07770526
100	0xbcb52e77	-0.022116883
101	0xbcefd6de	-0.029277261
102	0xbd157eb7	-0.036497798
103	0xbd65b2dd	-0.05607878
104	0x3d63a73d	0.055579413
105	0xbd789c4c	-0.06069593
106	0xbda41cba	-0.08013292
107	0x3c1dfc07	0.0096426075
108	0xbd89533d	-0.067053296
109	0x3db99a96	0.09062688
110	0xbd463ef0	-0.048399866
111	0x3d1d7e5b	0.03845058
112	0x3d6888a7	0.056770947
113	0xbc54b1c3	-0.012981835
114	0xbacf5f29	-0.0015821207
115	0x3cda1a1d	0.02662378
116	0xbd8a7a92	-0.0676166
117	0x3daa90ae	0.08328377
118	0x3ca9c4f2	0.020723794
119	0x3db1f742	0.08689739
120	0xbd76b037	-0.060226645
121	0xbc99c40d	-0.018770242
122	0xbd83dc16	-0.064384624
123	0x39d4170f	0.0004045297
124	0xbdeb5ee9	-0.11492712
125	0x3d352af7	0.044230428
126	0x3c81c4c8	0.015840903
127	0xbd28998f	-0.04116207
128	0xbcfc4c18	-0.030798003
129	0x3d940032	0.072266
130	0x3d8adbc0	0.06780195
131	0xbd154f5b	-0.036452632
132	0xbd084de7	-0.03327742
133	0x3cd7164c	0.02625575
134	0xbd9c7d71	-0.076411135
135	0x3d50d98b	0.050988715
136	0x3d061963	0.032739054
137	0xbcc5b5a0	-0.024134457
138	0xbc83273d	-0.016009921
139	0xbd4ed47c	-0.05049561
140	0x3d994128	0.07483131
141	0x3daf8ba6	0.08571558
142	0x3dadf30c	0.08493623
143	0x3da67d49	0.08129365
144	0xbd6e1ee5	-0.058134932
145	0xbd5a9143	-0.05336119
146	0xbd508fb9	-0.050918315
147	0x3d88da13	0.06682219
148	0x3d882701	0.066480644
149	0x3ce4a1e5	0.027909229
150	0x3d5e8bc6	0.054332517
151	0x3b3ed744	0.0029120008
152	0xbc8df07d	-0.017326588
153	0x3d53e4f5	0.051732022
154	0x3d2ca0f2	0.042145677
155	0xbc5f9e8c	-0.01364864
156	0xbcf40497	-0.029787345
157	0xbd4d1d37	-0.05007669
158	0x3d008ad3	0.031382393
159	0xbb2d35fa	-0.0026429878
160	0xbd15d582	-0.03658057
161	0xbd017715	-0.031607706
162	0x3d0a9df2	0.033842035
163	0xbc2526b7	-0.010080031
164	0xbdb32713	-0.08747687
165	0xbd24cc49	-0.040233884
166	0x3d83ec91	0.06441606
167	0xbd020410	-0.031742156
168	0x3c7e9602	0.015538694
169	0x3cf2f552	0.029657993
170	0x3d183854	0.037163094
171	0x3ca26c45	0.019827018
172	0x3aa48e1b	0.0012554558
173	0xbba26091	-0.0049553593
174	0x3d1d4361	0.038394336
175	0xbd92b512	-0.07163443
176	0x3d844479	0.064583726
177	0xbc73528d	-0.014851225
178	0xbd0245f6	-0.031805
179	0x3d2a0065	0.041504283
180	0xbd180fc1	-0.0371244
181	0xbd9c9a57	-0.076466255
182	0x3d76d497	0.060261335
183	0xbb035ce2	-0.0020044376
184	0xbc7a7b4b	-0.015288184
185	0xbd04f10e	-0.03245645
186	0xbd094a0d	-0.033517886
187	0xbd629657	-0.055319156
188	0xbd7babf3	-0.06144328
189	0xbd9f2c23	-0.0777209
190	0xbcbe7849	-0.023250716
191	0x3d999012	0.07498182
192	0x3d4f4100	0.0505991
193	0x3db4ff80	0.08837795
194	0x3d8a072b	0.067396484
195	0xbda89a9c	-0.082326144
196	0xbd93a62a	-0.07209428
197	0xbd885cb2	-0.06658305
198	0xbd3272d3	-0.043566536
199	0xbc14be6f	-0.009078606
200	0x3d178bce	0.036998563
201	0x3dba6c98	0.09102744
202	0xbca8667c	-0.02055668
203	0xbdb30a51	-0.08742202
204	0xbd803e4a	-0.06261881
205	0x3b1bbe38	0.0023764502
206	0x3d56010c	0.052247092
207	0xbc81adf7	-0.015830023
208	0x3bfcc70d	0.0077141584
209	0xbdaf79bb	-0.0856814
210	0xbccde955	-0.025135675
211	0x3d9fadb9	0.07796807
212	0x3cd4a3fc	0.0259571
213	0xbc23aab2	-0.009989427
214	0x3d8db1b7	0.06918662
215	0xbc76ae96	-0.015056273
216	0x3d5edff6	0.054412805
217	0xbd8322e1	-0.06403137
218	0x3ba3fe50	0.0050046816
219	0x3d1a3dbd	0.037656534
220	0x3dae958c	0.085246176
221	0xbd1a19a3	-0.037622105
222	0x3d87c8e7	0.06630116
223	0xbd04f0bc	-0.032456145
224	0x3d7ef5ec	0.062246248
225	0x3d97c9e0	0.074115515
226	0x3d7d5fc3	0.061858904
227	0xbcb6c174	-0.022309043
228	0xbd2e6e9b	-0.04258595
229	0xbd4ec074	-0.050476506
230	0x3b2082b1	0.002449196
231	0x3beb184c	0.0071745273
232	0xbd900551	-0.07032264
233	0xbdbbcf5e	-0.091704115
234	0xbd880b1a	-0.066427425
235	0x3cd41c90	0.025892526
236	0xbd16eb7f	-0.03684568
237	0x3d7d5632	0.06184978
238	0x3c94c9cf	0.018162636
239	0x3d3b42d1	0.045718018
240	0x3d327ecc	0.043577954
241	0x3d949604	0.07255176
242	0x3b91f6d3	0.0044544726
243	0xbd9ab7bb	-0.07554575
244	0x3dbc9fdb	0.092101775
245	0x3d03e348	0.032199174
246	0xbd9a86a6	-0.075452134
247	0xbcb10050	-0.021606594
248	0xbe2441a2	-0.16040662
249	0x3c7c670d	0.015405429
250	0x3ccc4513	0.02493528
251	0x3cf8f614	0.030390777
252	0xbc9c87ee	-0.019107785
253	0x3d9c142c	0.07621035
254	0xbb9d2246	-0.0047953455
255	0xbda668fc	-0.08125493

linear1.bias f4 [200]
0	0xbc688f06	-0.014194256
1	0xbd3575d0	-0.044301808
2	0x3c584c3e	0.013201771
3	0x3daf6ae1	0.085653074
4	0x3cb097ca	0.021556754
5	0x3db96e9c	0.090543
6	0x3d77f458	0.06053576
7	0x3bd6fde8	0.0065610297
8	0x3d6ecac7	0.058298852
9	0x3b02ebb1	0.0019976909
10	0xbd5496e1	-0.0519017
11	0xbdb87d9f	-0.09008335
12	0x3c9c8788	0.019107595
13	0x3d681a34	0.056665614
14	0xbd57cf20	-0.052687764
15	0xbd076799	-0.033057783
16	0x3e045f7d	0.12927051
17	0x3da42147	0.0801416
18	0x3e04d9f2	0.12973765
19	0x3d1c8154	0.038209274
20	0x3d876414	0.06610885
21	0x3cb1ff3d	0.021728152
22	0x3ca09285	0.019601116
23	0x3d6067d4	0.05478652
24	0x3caaabc1	0.020833852
25	0x3d511db4	0.051053718
26	0x3da0fbd6	0.07860534
27	0x3d1e4692	0.03864152
28	0xbd91f6b2	-0.071271315
29	0x3d5dffa8	0.05419889
30	0x3da68721	0.081312425
31	0xbd8d1e8d	-0.06890593
32	0xbda0b7f8	-0.07847589
33	0xbb22deb5	-0.0024851982
34	0x3c174984	0.009233836
35	0x3ddfaf4d	0.10922108
36	0xbc28522b	-0.010273497
37	0x3dad6a7f	0.08467578
38	0x3d30fdcc	0.04321079
39	0x3da12b17	0.07869547
40	0xbd20ae34	-0.039228633
41	0xbcb4abae	-0.02205452
42	0xbdc8ef0a	-0.09811218
43	0x3d5f582f	0.054527458
44	0x3dc32a64	0.0952957
45	0xbd3be15f	-0.045869227
46	0xbd40a0b7	-0.04702827
47	0x3cf4fb16	0.029904883
48	0xbd7bfbbe	-0.061519377
49	0x3d26ca70	0.040720403
50	0xbd36077e	-0.04444074
51	0x3cba1b3d	0.022718066
52	0x3d3913e3	0.04518498
53	0x3d4cd905	0.050011653
54	0xbddca5f0	-0.107738376
55	0x3d1c381f	0.03813946
56	0x3e0f5f70	0.1400125
57	0xbd9e138a	-0.077185705
58	0x3de344b2	0.11097087
59	0x3d949df4	0.0725669
60	0xbd42bfbf	-0.047546145
61	0x3e0c8e08	0.13726056
62	0x3d7ba8e7	0.061440375
63	0xbc95cad4	-0.018285193
64	0xbd38b0c9	-0.04509047
65	0xbd186574	-0.03720613
66	0xbdd59375	-0.10428516
67	0x3c600ed5	0.013675411
68	0xbab768b8	-0.0013993001
69	0xbd083337	-0.033251967
70	0xbc9fdbd4	-0.019514002
71	0x3d814d45	0.06313566
72	0x3dc0fde6	0.09423427
73	0x3dccbcb6	0.09996931
74	0xbbec7440	-0.0072160065
75	0xbc3868a6	-0.011255419
76	0x3d80ffab	0.06298765
77	0x3cf0ed2d	0.02940997
78	0x3d99b8ad	0.07505927
79	0x3d631744	0.05544211
80	0x3dae705c	0.085175246
81	0x3c21224f	0.00983484
82	0xbd2f94b7	-0.042866435
83	0xbd69c20e	-0.05706983
84	0xbd96753d	-0.0734658
85	0xbb0eb2ad	-0.002177398
86	0xbcf6329a	-0.030053426
87	0xbdd438ca	-0.10362394
88	0xbd9f0201	-0.07764054
89	0xbc8d06a0	-0.017215073
90	0xbd084a47	-0.03327396
91	0xbd2dcf9b	-0.042434316
92	0xbd7eb593	-0.06218488
93	0x3d98d424	0.074623376
94	0xbd10fcca	-0.03539733
95	0x3e0172a0	0.12641382
96	0xbd171c0a	-0.036891975
97	0x3de88740	0.11353922
98	0xbd024e24	-0.031812802
99	0x3d787dc8	0.06066683
100	0xbd8bcc25	-0.06826047
101	0xbd9295e7	-0.07157498
102	0x3d3bef00	0.045882225
103	0xbc8d98e5	-0.01728482
104	0x3bca832d	0.006180188
105	0x3d196546	0.037450098
106	0xbd8bd915	-0.068285145
107	0x3de5d692	0.11222567
108	0x3c9717ee	0.018444028
109	0xbc5b32d8	-0.013378821
110	0x3db0045e	0.08594583
111	0x3e01cea4	0.12676483
112	0xbb8490be	-0.004045575
113	0xbc88d22e	-0.016701784
114	0x3c269229	0.010166683
115	0x3d91ff12	0.07128729
116	0x3d9e489b	0.07728692
117	0x3acf132f	0.0015798564
118	0x3de05527	0.109537415
119	0x3d8f7c00	0.07006073
120	0x3d8557b5	0.065108694
121	0x3ccb52e5	0.0248198
122	0xbd25209b	-0.040314298
123	0xbd2767a1	-0.040870313
124	0x3c71d45c	0.014760103
125	0xbcff0539	-0.03113042
126	0x3e0a9740	0.1353426
127	0xbd1e18b0	-0.038597763
128	0xbd8462bc	-0.064641446
129	0x3b806d41	0.003919274
130	0xbd72fde7	-0.05932417
131	0xbca9ef5e	-0.020744022
132	0x3c2eef1f	0.010677128
133	0x3c98518e	0.018593576
134	0x3d75cfeb	0.06001274
135	0x3ce8b275	0.028405407
136	0x3c28f08d	0.010311258
137	0xbcf6704f	-0.03008285
138	0xbd825873	-0.063645266
139	0x3d19b870	0.03752941
140	0x3d81c2da	0.06335993
141	0x3db9e078	0.09076017
142	0xbd939f25	-0.07208089
143	0x3d461d00	0.0483675
144	0xbd8c7aa2	-0.06859328
145	0x3d072a4e	0.03299933
146	0xbd3d7e76	-0.04626318
147	0xbd9b081f	-0.07569908
148	0x3d566019	0.05233774
149	0xbcd70f64	-0.026252456
150	0x3d2424f2	0.040074296
151	0x3d92219d	0.071353175
152	0xbc52a02d	-0.012855572
153	0xbca2c928	-0.01987131
154	0xbd94da8f	-0.07268249
155	0xbd9770b7	-0.073945455
156	0xbd6dd963	-0.058068644
157	0x3c92f1a1	0.017937483
158	0x3d0035b1	0.031301204
159	0xbdd7bdae	-0.105342254
160	0xbdbfe887	-0.09370523
161	0x3dc2552a	0.094889
162	0x3d8b4e80	0.06802082
163	0xbd5e17a0	-0.05422175
164	0xbdb6eddc	-0.08932087
165	0x3d8fcd03	0.07021525
166	0x3cebbfce	0.028777983
167	0xbd71f209	-0.059068713
168	0xbd573e3b	-0.052549582
169	0x3da61ace	0.08110581
170	0x3d5eafe8	0.054366976
171	0x3baee02c	0.005336782
172	0xbd0c5c90	-0.034267962
173	0xbc90213b	-0.01759397
174	0xbc87a3eb	-0.016557654
175	0x3d130182	0.03589011
176	0x3da3e497	0.080025844
177	0x3db5fec7	0.088864855
178	0xbcec76b8	-0.028865203
179	0xbd88143c	-0.066444844
180	0xbdb44a7c	-0.08803269
181	0x3da68715	0.081312336
182	0x3d8f85e0	0.070079565
183	0x3d908df8	0.070583284
184	0xbd3ce613	-0.046117853
185	0xbd0b5f91	-0.034026686
186	0xbaa7bc1d	-0.0012797151
187	0x3d153dd9	0.036435936
188	0xbd205e95	-0.0391527
189	0xbd238e53	-0.039930653
190	0x3dbef63b	0.093243085
191	0xbd8b38cc	-0.067979425
192	0x3d0eb408	0.03483966
193	0x3d321462	0.04347647
194	0x3d22e904	0.039773002
195	0xbdad2c91	-0.08455766
196	0x3d09929f	0.033587094
197	0xbd8356e0	-0.064130545
198	0x3db8f0df	0.090303175
199	0x3c9a3140	0.018822312

linear2.weight f4 [200, 200]
0	0x3d744926	0.059640072
1	0x3d5cb22a	0.053880848
2	0x3d6e7e76	0.05822607
3	0x3ccd5fb4	0.025070049
4	0xbd3707a1	-0.04468501
5	0xbcfda74c	-0.030963562
6	0xbd175ec1	-0.0369556
7	0xbd67d846	-0.05660274
8	0x3c4a4570	0.012345657
9	0x3a07d300	0.0005181283
10	0xbd77f864	-0.060539618
11	0x3d66bc3e	0.056331865
12	0xbd1e16b1	-0.03859586
13	0x3d41f876	0.04735609
14	0x3c80a18c	0.015702032
15	0x3c942494	0.018083848
16	0x3d587336	0.05284425
17	0x3d7696ae	0.060202293
18	0xbd8a6a58	-0.06758565
19	0x3d888c15	0.066673435
20	0xbc83c900	-0.016087055
21	0x3d2c7696	0.04210528
22	0xbc9f8f1a	-0.019477416
23	0xbd01638b	-0.031589072
24	0x3d8d58c9	0.069017
25	0xbc446d94	-0.011989016
26	0xbcd3ed84	-0.025870092
27	0x3c944d40	0.018103242
28	0xbd6abe1e	-0.057310216
29	0x3c89f018	0.016838118
30	0xbcdadc00	-0.026716232
31	0xbc0059a8	-0.007833876
32	0xbc6df84c	-0.014524531
33	0xbcc8088e	-0.024418142
34	0xbd1807db	-0.037116867
35	0xbd5c4ce8	-0.05378428
36	0x3d87b4a7	0.066262536
37	0x3d4cffa2	0.050048478
38	0xbd8d41da	-0.06897326
39	0xbd33bb26	-0.04387965
40	0xbc071fd8	-0.008247338
41	0x3d5a7a60	0.053339362
42	0x3d7ad5ca	0.06123904
43	0xbcc067bc	-0.023486964
44	0xbd354c7a	-0.044262387
45	0xb9263c00	-0.00015853345
46	0xbd80cb96	-0.06288831
47	0x3c4975c8	0.012296148
48	0x3caa6e98	0.020804688
49	0x3bda96d0	0.0066708103
50	0xbd7f9925	-0.06240191
51	0x3c8130cc	0.015770338
52	0x3ca66bcc	0.020315073
53	0x3c9de894	0.019275941
54	0xbbdc69b0	-0.006726466
55	0xbc396a50	-0.011316851
56	0x3b86fef0	0.0041197464
57	0xbc620c24	-0.01379684
58	0xbbb9c690	-0.0056694224
59	0x3d0fa6e6	0.035071276
60	0xbd2e0d91	-0.042493407
61	0xbc53735c	-0.012905922
62	0x3c8fa3ec	0.017534219
63	0x3d8b9d4d	0.06817112
64	0xbd7bf0f4	-0.061509088
65	0xbc598314	-0.01327588
66	0xbbc67250	-0.0060561076
67	0xbd60e370	-0.0549044
68	0xbc5b0f60	-0.013370365
69	0x3ccbcb88	0.024877325
70	0x3d49e7ac	0.049293205
71	0x3c030960	0.007997841
72	0xbd05f7c9	-0.03270701
73	0xbd184725	-0.037177224
74	0xbd877f8e	-0.06616126
75	0xbd1e71a7	-0.038682606
76	0xbd87efb9	-0.0663752
77	0xbd2b5b92	-0.041835375
78	0xbd0270ea	-0.031845964
79	0x3cb046b4	0.021518089
80	0x3d8f123d	0.069859006
81	0x3ce0935c	0.027414016
82	0xbd4fe737	-0.050757613
83	0x3c5d4b28	0.013506688
84	0xbd3a9128	-0.045548588
85	0xbcab9a88	-0.02094771
86	0xbcc61872	-0.024181578
87	0x3cb041ac	0.02151569
88	0x3ca58420	0.020204604
89	0x3ce76178	0.028244719
90	0x3cd009b8	0.02539526
91	0x3d47b252	0.048754044
92	0xbcfe1c6e	-0.031019416
93	0xbd04dc33	-0.03243656
94	0x3c0f90d8	0.008762561
95	0xb9e26900	-0.0004318431
96	0x3ceedd98	0.029158399
97	0x3d057670	0.032583654
98	0x3cdb316c	0.026756965
99	0xbd84f572	-0.064921275
100	0x3d564e1c	0.052320585
101	0x3d0ff990	0.03515011
102	0xbc947f5a	-0.018127132
103	0x3d7dbe16	0.06194886
104	0x3d87e1a3	0.06634834
105	0x3bca15d0	0.006167151
106	0x3bd17e10	0.0063932016
107	0xbd5e1eb8	-0.054228514
108	0xbd42067a	-0.047369458
109	0x3d8b5cff	0.06804847
110	0xbd1d78cc	-0.03844528
111	0x3d2df39e	0.04246866
112	0xbd6366e9	-0.055518065
113	0x3bfbbf20	0.007682696
114	0x3d56d996	0.0524536
115	0xbcb19c98	-0.021681115
116	0x3c241af0	0.010016188
117	0xbd5ca945	-0.053872366
118	0xbd6e75c5	-0.058217783
119	0xbd35064a	-0.04419545
120	0xbcef2c8a	-0.029196043
121	0x3d722202	0.059114464
122	0xbd8c7fe7	-0.06860333
123	0x3cc61a38	0.024182424
124	0xbd010e2e	-0.031507663
125	0x3a90d300	0.0011049211
126	0x3d720bf2	0.059093423
127	0xbd5606d6	-0.052252613
128	0xbc93d952	-0.018047962
129	0x3d892047	0.066956095
130	0xbd7716a6	-0.060324334
131	0x3cd7e864	0.02635593
132	0x3c9a12f4	0.018807866
133	0xbd53c737	-0.051703658
134	0x3c9ad078	0.018898234
135	0x3d863505	0.065530814
136	0xbd3ec8da	-0.046578266
137	0xbbacfb40	-0.005278975
138	0xbd555d7e	-0.052091114
139	0xbd676288	-0.05649045
140	0xbc9d3306	-0.019189369
141	0xbce5a6e0	-0.028033674
142	0xbd8e2f10	-0.0694257
143	0xbd649543	-0.05580641
144	0x3c6dce90	0.01451458
145	0x3cfb18e4	0.030651517
146	0xbd80fd1a	-0.06298275
147	0x3b143a80	0.0022617877
148	0xbd11c6cd	-0.03558998
149	0x3cf7ea00	0.030262947
150	0x3d89ff5f	0.06738161
151	0xbcbd042a	-0.023073275
152	0xbc1b1a50	-0.009466723
153	0x3d08896c	0.03333418
154	0x3d7ca276	0.061678372
155	0xbc6d7150	-0.014492348
156	0xbd8cbce9	-0.06871969
157	0xbb826000	-0.0039787292
158	0x3d280670	0.041021764
159	0xbd52c812	-0.051460333
160	0x3d512fee	0.0510711
161	0x3d53d5b6	0.051717483
162	0xbc99a074	-0.018753268
163	0xbd43bd68	-0.047788054
164	0x3d12cbd2	0.03583891
165	0xbd7c6ffa	-0.061630227
166	0xbc755098	-0.014972828
167	0x3d0bdada	0.03414426
168	0x3d7ad7fe	0.061241142
169	0x3d6c8396	0.057742678
170	0xbd84934b	-0.064734064
171	0xbafddb00	-0.0019367635
172	0xbd1c7288	-0.038195163
173	0xba56a000	-0.0008187294
174	0x3cdff488	0.027338281
175	0xbd83e428	-0.06440002
176	0x3cc85d20	0.024458468
177	0x3cb573e0	0.02214998
178	0xbd7312f4	-0.059344247
179	0x3c852644	0.016253598
180	0xbd79d272	-0.060991712
181	0xbd51f7ac	-0.05126159
182	0x3d7e9c9a	0.062161066
183	0xbd6bea30	-0.057596385
184	0x3d88dcff	0.06682777
185	0xbd514953	-0.051095318
186	0x3d5ee56e	0.05441802
187	0x3ca7eb54	0.020497955
188	0xbd5d1cc0	-0.053982496
189	0x3d34a0ee	0.044098787
190	0xbd882a25	-0.066486634
191	0xbd1cac54	-0.038250282
192	0xbcd8046c	-0.026369296
193	0xbd863c00	-0.06554413
194	0xbc173b18	-0.009230398
195	0x3d66df5a	0.05636535
196	0xbc98399c	-0.018582158
197	0xbcaf2b52	-0.021382961
198	0xbc961be0	-0.018323839
199	0xbd3a6b32	-0.045512386
200	0x3db0a4f9	0.08625216
201	0xbc74810e	-0.014923347
202	0xbd3f3cf7	-0.046689
203	0x3d930d49	0.07180268
204	0x3cc87224	0.024468489
205	0x3d016ee5	0.031599898
206	0x3c8a7dff	0.016905783
207	0xbdecdc3a	-0.115654424
208	0xbd123646	-0.03569629
209	0xbd43afe7	-0.047775175
210	0xbcce1079	-0.02515434
211	0xbd2130de	-0.039353244
212	0x3c09e07f	0.00841534
213	0x3dc950eb	0.09829887
214	0xbd4c077b	-0.04981182
215	0x3d4924ff	0.049107548
216	0x3dfd4e2a	0.12368424
217	0xbcb3ecc9	-0.021963494
218	0x3d61df08	0.05514434
219	0xbd399024	-0.04530348
220	0x3ca7848d	0.020448947
221	0xbbd98b41	-0.006638915
222	0xbd385911	-0.045006815
223	0x3cfde154	0.030991234
224	0x3d87aeec	0.066251606
225	0xbb0f42b2	-0.0021859822
226	0x3d18fe47	0.037351873
227	0xbcf98925	-0.030460903
228	0xbd70e38e	-0.058810763
229	0x3d71590d	0.058922816
230	0xbbbea794	-0.0058183167
231	0xbd066fea	-0.032821573
232	0x3d22f098	0.03978023
233	0xbd200db1	-0.039075557
234	0xbd243ddc	-0.040098056
235	0x3d4a6aa2	0.0494181
236	0x3b1f6530	0.0024321787
237	0x3d45b92f	0.048272308
238	0xbc0d9d5f	-0.008643477
239	0xbd7b09f0	-0.061288774
240	0xbac4a610	-0.0015003104
241	0xbd650ac2	-0.055918463
242	0xbd3b0d6d	-0.0456671
243	0x3d6f8d25	0.058484215
244	0xbd6d5389	-0.057940993
245	0xbc338e20	-0.010959178
246	0x3d66a1c4	0.056306615
247	0x3cfda43f	0.030962108
248	0xbd0bd2b0	-0.034136474
249	0x3cd7e387	0.02635361
250	0xbb277ede	-0.0025557796
251	0xbe49f12c	-0.19720906
252	0x3cb5040e	0.02209666
253	0x3cb5c0c9	0.022186654
254	0xbdc51478	-0.09623045
255	0xbda4bf90	-0.0804435

linear2.bias f4 [200]
0	0xbc458a84	-0.0120569505
1	0x3d260a00	0.04053688
2	0x3c3e744e	0.011624409
3	0xbd437b50	-0.04772502
4	0xbd59a9c0	-0.0531404
5	0x3cb70934	0.022343256
6	0x3d79d9c8	0.060998708
7	0x3cd1c0ef	0.025604693
8	0xbd73d5a7	-0.059529927
9	0x3c311c1a	0.010809923
10	0x3c0f553c	0.008748349
11	0x3d9de7b5	0.0771021
12	0xbdb99522	-0.09061648
13	0x3d43ad0f	0.047772463
14	0xbd4cf152	-0.05003483
15	0xbcc56d04	-0.024099834
16	0xbd7cab8b	-0.061687034
17	0x3d1e28e4	0.038613215
18	0x3cb3434d	0.021882677
19	0xbd956b43	-0.07295849
20	0x3d6d89ac	0.057992622
21	0xbc818bcd	-0.015813733
22	0x3dcde36f	0.10053145
23	0xbd5135a6	-0.051076554
24	0x3d082d11	0.033246104
25	0xbd10a64c	-0.035314843
26	0xbd866a97	-0.06563299
27	0xbd207e3f	-0.039182898
28	0xbbf55455	-0.00748686
29	0x3d89a2a8	0.06720477
30	0xbbcdbe86	-0.0062788157
31	0x3d919e43	0.07110264
32	0x3d055917	0.032555666
33	0x3cce635b	0.02519386
34	0x3dabfd21	0.0839789
35	0x3cb0f9ff	0.021603582
36	0xbda7e304	-0.08197597
37	0x3d68177f	0.056663033
38	0x3cca8246	0.024720322
39	0x3db6d304	0.08926967
40	0xbc546b45	-0.012965028
41	0x3c5c06bf	0.013429343
42	0xbcfba732	-0.030719373
43	0x3c9e7924	0.019344874
44	0xbc25942d	-0.010106129
45	0x3c82d0df	0.015968738
46	0x3cfe51d8	0.031044886
47	0x3dbcb289	0.092137404
48	0x3d2ef8b6	0.042717658
49	0x3d7f060b	0.062261622
50	0xbd4a5f05	-0.049407024
51	0xbc7c0ba9	-0.015383639
52	0x3d37bfe4	0.044860736
53	0x3daa52cd	0.08316574
54	0x3d3790de	0.04481589
55	0xbd21793e	-0.039422266
56	0xbaa7d066	-0.0012803196
57	0xbd5005b2	-0.05078668
58	0x3d42d347	0.04756477
59	0xbd2a7ba9	-0.041621838
60	0x3d2eddf3	0.042692136
61	0x3c363aac	0.011122387
62	0x3d428d85	0.047498245
63	0x3d16444f	0.036686238
64	0x3d8d9035	0.06912271
65	0x3d590acb	0.05298881
66	0x3d181352	0.0371278
67	0xbcb16e3b	-0.021659007
68	0x3d0842da	0.03326688
69	0x3b06d820	0.0020575598
70	0xbc1c36c6	-0.009534543
71	0x3cc9c7ce	0.024631407
72	0xbdb1c182	-0.08679487
73	0x3cd5df13	0.026107347
74	0x3dad3c45	0.08458761
75	0x3c883caf	0.016630499
76	0x3d1e0992	0.038583346
77	0xbcdd1933	-0.026989555
78	0xbccf6424	-0.025316305
79	0xbd99591e	-0.07487701
80	0x3d6aa290	0.057283938
81	0x3d1b0629	0.03784767
82	0xbcd80e66	-0.026374053
83	0xbbb11fe0	-0.005405411
84	0xbcdfba6a	-0.027310569
85	0x3bd0501a	0.006357205
86	0x3d1ddf77	0.03854319
87	0x3d2d686c	0.042335913
88	0xbccdfbc5	-0.025144467
89	0xbd6f8eab	-0.05848567
90	0xbdb08eff	-0.08621024
91	0x3d3231ca	0.043504514
92	0x3d7dffc7	0.062011506
93	0xbdabd5b9	-0.08390374
94	0xbc57d12e	-0.013172431
95	0x3d96e87b	0.07368561
96	0xbca65d10	-0.020308048
97	0xbd54f37c	-0.051990017
98	0x3d9e1ab4	0.07719937
99	0x3af7a4ff	0.0018893777
100	0xbd80fe6c	-0.06298527
101	0x3da7f844	0.0820165
102	0xbd6df580	-0.058095455
103	0xbce62d3b	-0.02809774
104	0xbb52b788	-0.003215285
105	0x3c85c992	0.016331468
106	0x3d287992	0.041131563
107	0xbdb0a07d	-0.08624361
108	0xba238c35	-0.0006238849
109	0xbdb155c5	-0.08658937
110	0x39f1ef63	0.0004614546
111	0x3d80250d	0.06257067
112	0xbd13580e	-0.035972647
113	0xbd11096b	-0.035409372
114	0xbd95122d	-0.072788574
115	0xbc8799e0	-0.016552866
116	0xbcb8df2b	-0.022567352
117	0xbc9a96ab	-0.018870672
118	0xbd11344b	-0.03545026
119	0x3d2788ac	0.040901825
120	0x3cefb140	0.029259324
121	0x3da4863d	0.080334164
122	0x3cd0f8bd	0.025509233
123	0xbd061a5e	-0.03273999
124	0xbdaff8c8	-0.08592373
125	0xbcc0572f	-0.023479072
126	0x3c84564c	0.01615443
127	0xbd2fc2da	-0.042910434
128	0xbccf2d5e	-0.025290187
129	0xbcb220f3	-0.021744227
130	0x3cc7e1e8	0.024399713
131	0x3d1e868e	0.03870254
132	0xbd0396cf	-0.032126244
133	0xbd4bb96e	-0.049737386
134	0xbd78a1b5	-0.06070109
135	0x39b79c8e	0.00035021122
136	0x3cd41e8b	0.02589347
137	0x3d95b976	0.073107645
138	0x3cc37711	0.023860486
139	0xbb5b7d51	-0.0033491442
140	0x398e29a1	0.00027115367
141	0xbb62e6aa	-0.003462235
142	0xbc97f584	-0.018549688
143	0x3c446a0c	0.011988174
144	0x3cde1eb5	0.027114252
145	0x3db633fa	0.088966325
146	0x3cc7788e	0.024349477
147	0xbd461a80	-0.048365116
148	0xbd05d04e	-0.032669358
149	0xbc50e944	-0.012750927
150	0x3c199999	0.009374999
151	0x3da37f1a	0.07983227
152	0xbd25d17f	-0.040482994
153	0xbcd356a9	-0.025798159
154	0xbd86363b	-0.065533124
155	0xbd8785e9	-0.06617338
156	0x3d492d1f	0.049115296
157	0x3c1e9c37	0.009680799
158	0xbd53dae9	-0.05172244
159	0x3d958a1c	0.07301733
160	0xbc9e4bb0	-0.0193232
161	0xbd2e858d	-0.042607833
162	0x3ceb06e3	0.028689807
163	0xbc73af26	-0.014873302
164	0x3cd406d2	0.025882158
165	0xbd9e7d80	-0.07738781
166	0x3d8c1e48	0.06841713
167	0x3ca538ba	0.02016865
168	0x3d186123	0.03720201
169	0x3d8b659f	0.06806492
170	0xbc287684	-0.010282163
171	0xbbd8fd8a	-0.006622021
172	0xbc939dfb	-0.018019667
173	0xbcca6df6	-0.024710637
174	0xbd7dc8e2	-0.061959155
175	0xbcc20035	-0.02368174
176	0x3d2f9422	0.04286588
177	0x3da18861	0.0788734
178	0x3d023f38	0.03179857
179	0x3d2a1ebc	0.041533217
180	0xbd196b95	-0.037456114
181	0x3db7e0ae	0.08978401
182	0x3dd0d9d1	0.10197795
183	0xbd0f34d6	-0.034962498
184	0xbd688950	-0.056771576
185	0x3d2b5712	0.041831084
186	0xbcd7f38b	-0.026361248
187	0x3d44972d	0.047995735
188	0xbdab01b8	-0.08349937
189	0x3dbbdbc5	0.09172777
190	0xbc539fe8	-0.012916543
191	0x3d54198f	0.051782187
192	0xbd9299e7	-0.07158261
193	0xbcfa5659	-0.030558752
194	0xbd2725f9	-0.040807698
195	0x3d938599	0.07203216
196	0x3caab27c	0.020837061
197	0x3bce3048	0.0062923767
198	0x3c3938c9	0.011305043
199	0x3d706fee	0.058700494

linear3.weight f4 [196, 200]
0	0xbd1003ec	-0.03515999
1	0x3e0918df	0.13388394
2	0x3d19145c	0.03737293
3	0xbd2ed7e0	-0.042686343
4	0x3e40834e	0.18800089
5	0xbd5e7b12	-0.054316588
6	0xbd87c11d	-0.0662863
7	0x3d18734d	0.037219334
8	0x3df6ab8b	0.12044438
9	0x3d704a9e	0.05866491
10	0xbd030762	-0.031989463
11	0x3da8c69f	0.08241009
12	0xbcc09c85	-0.023512134
13	0xbcde3621	-0.02712542
14	0x3cf2973b	0.029613128
15	0x3d369bb6	0.04458209
16	0x3d3a37a7	0.04546323
17	0x3d1475f4	0.0362453
18	0x3d969f87	0.07354646
19	0x3c991ae4	0.01868958
20	0x3c337877	0.010954014
21	0x3dbaa177	0.09112828
22	0x3dcd28f9	0.100175805
23	0xbca459c7	-0.02006234
24	0x3cde02ba	0.02710091
25	0xbbd733c4	-0.0065674502
26	0x3d596396	0.05307349
27	0x3d414b63	0.047191035
28	0x3c983751	0.018581064
29	0xbc648f89	-0.013950237
30	0xbc938d44	-0.018011697
31	0x3a81c6ec	0.0009901202
32	0xbd8ea4dd	-0.06965039
33	0x3cc5519a	0.024086762
34	0x3d9e47e0	0.07728553
35	0x3d4c7afb	0.04992197
36	0xbac8cc7c	-0.001531973
37	0xbd155067	-0.03645363
38	0x3cd887f6	0.026432019
39	0x3c4c40ef	0.012466653
40	0xbcf5d023	-0.030006474
41	0x3d985f2a	0.07440026
42	0x3cefa648	0.029254094
43	0xbda5d1f8	-0.08096689
44	0xbc96bcc0	-0.01840055
45	0x3d2cd2cd	0.042193223
46	0x3d8a7779	0.06761069
47	0xbbf1e421	-0.0073819314
48	0x3a85dc85	0.0010212815
49	0x3dd08543	0.10181668
50	0xbd717552	-0.058949776
51	0xbd529270	-0.051409185
52	0xbd3ec006	-0.046569847
53	0xbd9e56df	-0.07731413
54	0xbd631130	-0.055436313
55	0x3c839590	0.016062528
56	0x3d8d1338	0.06888431
57	0x3e007aeb	0.1254689
58	0xbd4d7fc4	-0.050170675
59	0xbd353323	-0.04423822
60	0xbd35c716	-0.044379316
61	0xbcd827b7	-0.026386125
62	0x3d6ba50e	0.057530455
63	0xbdb11e6d	-0.086483814
64	0x3d863b8a	0.06554325
65	0x3cd343ea	0.02578922
66	0xbb39a98e	-0.0028329822
67	0x3ddb29b1	0.107013114
68	0x3b953839	0.0045538214
69	0xbc9e66e6	-0.019336175
70	0x3d9a1e9f	0.07525372
71	0xbd319a3f	-0.04335999
72	0xba446afe	-0.000749275
73	0xbca70151	-0.02038637
74	0x3cd83b85	0.026395569
75	0x3c8ba8e7	0.017048312
76	0xbd3b80bc	-0.045777068
77	0xbb68da57	-0.0035530531
78	0xbd6c7be5	-0.057735343
79	0x3dca22b4	0.098699
80	0x3b8bb9a1	0.004264072
81	0x3c8380d7	0.016052647
82	0x3c5ce840	0.013483107
83	0xbc217717	-0.009855053
84	0x3d2ecebc	0.042677626
85	0x3c927f43	0.017882949
86	0xbd59ac72	-0.053142972
87	0xbcb55bbf	-0.022138475
88	0x3ca8a7fa	0.02058791
89	0xbc85532b	-0.01627501
90	0xbd9bc243	-0.07605412
91	0xbc6513db	-0.013981785
92	0x3cf50392	0.029908929
93	0x3cf33e89	0.029692905
94	0xbcd90e65	-0.026496122
95	0xbc79f71a	-0.0152566675
96	0xbc69d8e3	-0.014272901
97	0x3cf6ef42	0.030143384
98	0xbc365da6	-0.011130726
99	0xbcd7e88d	-0.026356006
100	0xbd1895db	-0.03725229
101	0xbb2faebc	-0.002680703
102	0x3c4a53bb	0.012349064
103	0x3d9060c3	0.07049706
104	0xbd013453	-0.03154404
105	0x3d9d651b	0.076853
106	0xbe0ee37e	-0.13953969
107	0x3d0c2806	0.034217857
108	0x3d4ece90	0.050489962
109	0xba82d854	-0.0009982684
110	0xbcfe0082	-0.031006102
111	0xbd38df4a	-0.04513482
112	0xbd8323ce	-0.064033136
113	0x3dac1d87	0.084040694
114	0x3c7bd1b1	0.015369819
115	0x3cef9ae3	0.02924866
116	0xbc905a7d	-0.017621273
117	0xbdc035e6	-0.0938528
118	0xbd385cb1	-0.045010272
119	0xbcab828c	-0.020936273
120	0x3d847beb	0.06468948
121	0xbca1b74b	-0.019740721
122	0x3d69b445	0.057056684
123	0x3d9ffa25	0.07811383
124	0xbca2a984	-0.019856222
125	0x3c8e04f7	0.017336352
126	0x3d02b08e	0.031906657
127	0xbd2cd97b	-0.042199593
128	0x3d376e98	0.044783205
129	0x3d1e9597	0.03871688
130	0x3d867c20	0.06566644
131	0x3cb7c991	0.022434982
132	0x3d39aa05	0.04532816
133	0xbd2848ef	-0.04108518
134	0xbcec5a68	-0.028851703
135	0x3d52a5bb	0.051427584
136	0xbd2bfb4b	-0.0419877
137	0xbd89a68b	-0.06721219
138	0x3d27989e	0.04091703
139	0xbd4e0c81	-0.050304893
140	0xbd586b89	-0.05283693
141	0xbd03049b	-0.031986814
142	0x3d479c81	0.048733238
143	0xbd8305e7	-0.0639761
144	0x3d4e2498	0.050327867
145	0x3cd46f42	0.025931958
146	0x3d68f8d2	0.05687792
147	0xbd2861b4	-0.041108802
148	0x3cb42d38	0.021994218
149	0x3a38476a	0.00070296845
150	0xba8acab9	-0.001058898
151	0x3d3d7a9f	0.04625952
152	0xbbc4c162	-0.0060044983
153	0xbd3d0d2d	-0.046155144
154	0x3d925d79	0.07146735
155	0x3db2411e	0.08703826
156	0x3da049ad	0.078265525
157	0x3cf70979	0.030155884
158	0xbb2336fe	-0.0024904604
159	0x3d8373c1	0.06418563
160	0xbd1e4385	-0.03863861
161	0x3c89b869	0.016811566
162	0x3d2ed02c	0.042678997
163	0x3d5e184c	0.05422239
164	0xbcd08faf	-0.025459139
165	0xbd208602	-0.0391903
166	0x3d48251b	0.04886351
167	0x3d2b4f51	0.04182369
168	0x3d3a27ed	0.045448232
169	0x3d34b675	0.044119317
170	0xbcfd600f	-0.030929593
171	0xbb3810ac	-0.002808611
172	0xbd951e81	-0.07281209
173	0xbc5cba73	-0.013472187
174	0x3b12025e	0.0022279243
175	0xbd4fbbb4	-0.050716117
176	0x3db6d7fa	0.08927913
177	0xbd6fd16b	-0.058549326
178	0xbc7c69c6	-0.015406078
179	0xbd0593df	-0.032611724
180	0x3c9aa08e	0.018875387
181	0x3d414497	0.047184553
182	0x3d33fc79	0.04394195
183	0x3ae77464	0.0017658588
184	0x3d126d0a	0.03574852
185	0x3d9dacc1	0.07698966
186	0x3d8005d8	0.062511146
187	0xbd88c095	-0.06677357
188	0x3d5bebaf	0.053691562
189	0xbd8849e9	-0.06654722
190	0xbd4a5654	-0.049398735
191	0x3d5f0474	0.054447606
192	0xbd24497b	-0.04010914
193	0xbccc3bde	-0.02493089
194	0x3c4138c6	0.011793321
195	0xbd00cd16	-0.031445585
196	0x3d49f560	0.049306273
197	0x3d85f350	0.06540549
198	0x3cec8d27	0.0288759
199	0xbbdb65c5	-0.0066954815
200	0xbd037424	-0.032093182
201	0x3cf4fbf3	0.029905295
202	0x3d0927da	0.03348527
203	0xbd9a4156	-0.07531993
204	0xbcb34020	-0.021881163
205	0xbc78a7b4	-0.015176702
206	0x3cf92d64	0.030417152
207	0xbd1f8dd5	-0.03895362
208	0xbde0c952	-0.10975899
209	0x3d49f506	0.04930594
210	0xbc41a21c	-0.011818435
211	0x3d33f46c	0.04393427
212	0xbe39303c	-0.18084806
213	0x3d3f3ec1	0.046690706
214	0xbd8faf20	-0.07015824
215	0xbc599410	-0.01327993
216	0xbd2755c4	-0.040853277
217	0x3d5a4dde	0.053296916
218	0xbd24f139	-0.04026911
219	0x3bb963c3	0.0056576445
220	0x3d687249	0.056749616
221	0xbc95a5c3	-0.018267518
222	0x3dc72854	0.09724489
223	0x3cc72f22	0.024314467
224	0x3da92c14	0.0826036
225	0xbc48b891	-0.012251035
226	0xbd32d86a	-0.04366342
227	0xbcb09a75	-0.021558026
228	0xbd7756b0	-0.060385406
229	0x3dbd5c26	0.092460915
230	0xbd21e656	-0.039526306
231	0x3bf4cd93	0.0074707954
232	0x3e0dd877	0.13852106
233	0x3d5bd984	0.053674236
234	0x3d59fe78	0.053221196
235	0x3d61e489	0.05514959
236	0xbd580b47	-0.05274513
237	0x3d90d97d	0.070727326
238	0x3d8a2548	0.06745392
239	0xbcb4b6db	-0.022059849
240	0x3d6e4270	0.05816883
241	0xb8dd2be9	-0.0001054628
242	0xbd02666f	-0.03183597
243	0x3c464e38	0.01210361
244	0xbd5eaa20	-0.054361463
245	0xbce726ac	-0.028216682
246	0xbcfc4c5e	-0.030798133
247	0x3d8e214f	0.06939947
248	0x3dbb021c	0.09131262
249	0xbd5b7560	-0.053578734
250	0x3d7c05b5	0.06152888
251	0xbcacda41	-0.021100165
252	0x3d887265	0.06662444
253	0x3da7e4fe	0.08197974
254	0x3da8637b	0.082220994
255	0x3d68571e	0.056723706

linear3.bias f4 [196]
0	0x3d6dd809	0.058067355
1	0x3d30305b	0.043014865
2	0xbc950ded	-0.018195117
3	0xbd22332e	-0.03959959
4	0xbbc882b7	-0.006119098
5	0xbd49a8ee	-0.04923337
6	0xbdb2c2bd	-0.0872855
7	0x3dc7b52f	0.09751355
8	0xbcad1323	-0.02112729
9	0xbd14c77b	-0.036323052
10	0xbcb630e7	-0.022240115
11	0xbc88051f	-0.016604004
12	0x3b5518c5	0.0032515984
13	0x3cfcdee5	0.030868003
14	0x3d90dff1	0.070739634
15	0x3db516aa	0.088422135
16	0x3c844c9f	0.016149817
17	0x3d320716	0.04346379
18	0xbcb459d1	-0.022015484
19	0x3c825dc3	0.01591385
20	0x3d7ce88e	0.06174522
21	0x3b1f324b	0.0024291452
22	0x3d514024	0.05108656
23	0x3c27b12f	0.010235115
24	0x3dbe459c	0.09290621
25	0xbcecda85	-0.028912792
26	0xbcd97dfa	-0.026549328
27	0x3d8c8f8d	0.06863318
28	0xbc917b9d	-0.017759139
29	0x3d05323d	0.032518614
30	0xbc972354	-0.018449463
31	0x3ccffbc9	0.025388615
32	0xbd46033e	-0.048342936
33	0xbd4e182d	-0.050316025
34	0x3d85ff23	0.06542804
35	0xbd93609f	-0.071961634
36	0xbcc0f986	-0.023556482
37	0x3c1bb8b1	0.009504483
38	0x3c6b3b31	0.014357374
39	0xbd88acf8	-0.06673616
40	0xbc6c544a	-0.014424393
41	0xbd2bc31c	-0.041934118
42	0x3dbf5a29	0.093433686
43	0xbd4c7bbe	-0.049922697
44	0xbd216484	-0.0394025
45	0x3da5e33c	0.08099982
46	0x3cb9287e	0.022602316
47	0xbc727475	-0.014798273
48	0x3d81f9f2	0.063465014
49	0xbca7772d	-0.02044257
50	0x3d49e941	0.049294714
51	0x3db70874	0.08937159
52	0x3d320036	0.043457232
53	0x3d84feab	0.064938866
54	0x3c95f346	0.018304478
55	0xbd0cc77d	-0.034369934
56	0x3c463070	0.012096509
57	0xbcef9e1b	-0.029250195
58	0x3d60c200	0.054872513
59	0x3d09b3f0	0.033618867
60	0xbcd25590	-0.025675565
61	0xbc864c42	-0.016393784
62	0xbc85a22c	-0.016312681
63	0x3dd3a81c	0.10334799
64	0x3d3f74bf	0.046742197
65	0x3da68140	0.08130121
66	0xbc74a92f	-0.014932915
67	0xbdb3faab	-0.087880455
68	0x3ccc3d92	0.024931703
69	0xbd676735	-0.05649491
70	0xbd851b83	-0.06499388
71	0xbd2b3f9d	-0.041808713
72	0xbd916a5e	-0.07100366
73	0xbd8d06a9	-0.06886036
74	0xbcb6059f	-0.022219477
75	0x3d014f8c	0.031570002
76	0x3c1366b0	0.008996651
77	0x3d3980d5	0.04528888
78	0xbd2d7a2f	-0.04235285
79	0x3a8b00db	0.0010605113
80	0x3baa1014	0.005189905
81	0x3cbad324	0.022805758
82	0x3dad758a	0.084696844
83	0xbce9c467	-0.028536035
84	0x3d9af8ae	0.07566963
85	0x3dd98a73	0.1062211
86	0x3d3e9c98	0.04653606
87	0xbc38fcfc	-0.011290785
88	0xbc3d43e4	-0.011551831
89	0x3cca8548	0.024721757
90	0xbbfb3a90	-0.0076668933
91	0x3d8e63ab	0.06952604
92	0xbc8d4382	-0.017244104
93	0xbd18293b	-0.037148695
94	0x3d69f48c	0.057117984
95	0xbdac9781	-0.084273346
96	0x3d7e39cb	0.062066834
97	0xbd7432b8	-0.05961868
98	0xbd09f1bc	-0.0336778
99	0x3c7f99db	0.015600647
100	0xbd91cef0	-0.07119548
101	0x3d434dce	0.047681622
102	0xbcce874c	-0.025210999
103	0x3c84f2cb	0.016229054
104	0x3d83ad15	0.06429497
105	0x3d5b3f11	0.05352694
106	0xbc511513	-0.012761372
107	0xbd084d73	-0.033276986
108	0x3c10ec1c	0.008845355
109	0x3c63dda9	0.013907828
110	0xbd596d95	-0.05308302
111	0x3d5e3170	0.054246366
112	0xbcc86767	-0.024463369
113	0x3c2e5efe	0.010642765
114	0xbd42ed9c	-0.047589883
115	0x3cdd2b35	0.026998142
116	0xbc2a6bac	-0.010401648
117	0x3dd19527	0.10233527
118	0xbb29a180	-0.0025883615
119	0x3dac46eb	0.08411964
120	0xbceda335	-0.029008487
121	0xbd22c6cc	-0.03974037
122	0x3bfaa961	0.007649586
123	0x3dc9d75d	0.098555304
124	0xbd859ce8	-0.06524068
125	0x3dab752a	0.08371957
126	0x3cf04ada	0.029332567
127	0xbd95244d	-0.072823144
128	0x3dbd08b1	0.092301734
129	0xbd6df344	-0.058093324
130	0x3d97182b	0.073776565
131	0xbd20b600	-0.03923607
132	0xbc8cbfe7	-0.01718135
133	0x3cb64881	0.02225137
134	0x3ced3cf2	0.028959725
135	0xbd641fba	-0.05569432
136	0xbd942bb5	-0.07234899
137	0x3da171d7	0.07883041
138	0xbd468b7e	-0.048472874
139	0x3bdce1af	0.006740771
140	0xbc9ae902	-0.018909935
141	0xbd019f9a	-0.03164635
142	0x3d910a1d	0.07082007
143	0xbd21a75b	-0.039466243
144	0x3c5fa77c	0.013650771
145	0x3d38c7fc	0.045112595
146	0xbd75f120	-0.060044408
147	0x3d80aa3d	0.062824704
148	0xba46d785	-0.00075852155
149	0x3c0d57e0	0.008626908
150	0x3d986259	0.07440633
151	0x3d1173f2	0.035510965
152	0x3d601bfa	0.05471418
153	0x3cbf026f	0.02331659
154	0x3c05fb6f	0.008177622
155	0x3db42a82	0.0879717
156	0x3da92cd6	0.08260505
157	0xbc37b3d4	-0.011212308
158	0x3b81c6a7	0.003960449
159	0xbc951a01	-0.018200876
160	0x3d85bdb9	0.06530327
161	0x3d99662c	0.07490191
162	0x3d414ba7	0.04719129
163	0xbd1d7717	-0.03844365
164	0x3bc226c6	0.0059250323
165	0xbc26692c	-0.010156911
166	0x3ca2bd24	0.01986558
167	0x3d05ffaa	0.032714523
168	0xb9ae4ec6	-0.00033246557
169	0xbda778a3	-0.081773065
170	0xbcd05830	-0.025432676
171	0x3c85ac2a	0.016317446
172	0x3dabe6a8	0.083936036
173	0xbc8184be	-0.015810367
174	0x3dc17baa	0.09447415
175	0xbd8ef9af	-0.06981217
176	0x3dc3d468	0.09561998
177	0xbd1b2160	-0.037873626
178	0x3d0a656d	0.033788133
179	0x3d2f9c74	0.042873815
180	0xbd56cd1c	-0.0524417
181	0xbd3dd27c	-0.04634331
182	0x3d3b6a3b	0.045755606
183	0x3bab6ca5	0.0052314573
184	0x3d1b4522	0.037907727
185	0x3bc23c85	0.0059276246
186	0xbd88b1db	-0.06674548
187	0xba97e44f	-0.0011588427
188	0x3cf716e2	0.030162279
189	0xbd1ececf	-0.038771447
190	0x3ad9ca20	0.0016616024
191	0xbcd7b679	-0.026332127
192	0x3dc78b66	0.09743385
193	0x3a56ab5e	0.0008188988
194	0x3d3190f2	0.04335112
195	0xbcef2d83	-0.029196506

lstm.weight_ih_l0 f4 [40, 200]
0	0x3dde35dd	0.10850117
1	0x3dbc91c9	0.09207494
2	0xbe100061	-0.14062645
3	0x3f0268d8	0.5094123
4	0xbe8e852b	-0.27835974
5	0x3ec487b0	0.3838477
6	0xbd99767e	-0.07493304
7	0xbe47255b	-0.19447844
8	0x3e7385e6	0.23781547
9	0x3d2c2155	0.042023975
10	0x3f094893	0.53626364
11	0xbd7454ab	-0.05965106
12	0x3e7bea19	0.2460102
13	0x3e8227bc	0.2542094
14	0x3ea5c645	0.3237783
15	0xbcccd4ba	-0.02500378
16	0xbe31deb5	-0.17370112
17	0xbe760779	-0.24026288
18	0x3f156bc7	0.5836758
19	0xbe913bc8	-0.28365922
20	0x3d08a230	0.0333578
21	0xbdb33748	-0.087507784
22	0xbe74dc1f	-0.23912095
23	0x3e0b807e	0.13623235
24	0x3e4345bd	0.19069572
25	0x3cf29214	0.029610671
26	0x3e6e6003	0.23278813
27	0xbdcb9f80	-0.099425316
28	0x3e6cbe2d	0.23119421
29	0xbe3ccb2b	-0.18436877
30	0x3e6fa1cf	0.23401569
31	0xbd10820b	-0.03528027
32	0xbe180b9e	-0.14848182
33	0x3e223f21	0.15844394
34	0x3e701d54	0.23448688
35	0x3dbf8259	0.09351034
36	0x3e39d2c8	0.18146813
37	0xbd79b85f	-0.060966846
38	0xbe2cd750	-0.1687901
39	0x3e68d70e	0.22738287
40	0x3e00eb18	0.12589681
41	0x3e36321a	0.1779255
42	0xbd302a52	-0.04300911
43	0xbde89eee	-0.113584384
44	0x3d98faa5	0.07469682
45	0xbde4e47a	-0.11176391
46	0x3ca95cc4	0.020674117
47	0xbdced842	-0.10099842
48	0x3e8fa081	0.28052142
49	0x3e0840be	0.13305947
50	0x3bab8d38	0.0052353404
51	0xbe089025	-0.13336237
52	0xbe8c723a	-0.27430898
53	0xbe09bbf7	-0.13450609
54	0xbe28adcd	-0.1647255
55	0x3c8e8170	0.017395705
56	0xbe07329a	-0.13202897
57	0xbe02f804	-0.12789923
58	0x3e0a3212	0.13495663
59	0xbe37a40a	-0.1793367
60	0x3dd16559	0.10224409
61	0x3ea37dbe	0.3193187
62	0x3e38d1de	0.18048808
63	0xbe826d0f	-0.2547383
64	0xbe75cf4b	-0.24004857
65	0xbe9ee8ca	-0.3103698
66	0x3ec1bbff	0.37838742
67	0xbc4b52d4	-0.0124098845
68	0x3e28a839	0.16470422
69	0xbe0f2763	-0.13979869
70	0xbda01573	-0.07816591
71	0x3d65fd7d	0.05614995
72	0xbdb1cdbb	-0.08681818
73	0xbe9d1e3a	-0.30687124
74	0xbe94adba	-0.29038793
75	0x3eac96e9	0.33708885
76	0xbe0e8bb4	-0.1392048
77	0x3e3279a2	0.17429212
78	0xbeba3bc4	-0.36373723
79	0x3e19e59e	0.15028998
80	0xbe48ddc4	-0.19615847
81	0x3ce3f856	0.027828377
82	0x3dc7fd93	0.09765162
83	0xbe2fbc16	-0.17161593
84	0xbe231eb9	-0.15929689
85	0xbe5cab14	-0.21549636
86	0x3b867e0a	0.0041043805
87	0x3dbbbc74	0.09166804
88	0x3f291f4a	0.6606337
89	0x3d4b1350	0.049578965
90	0x3d85c69c	0.06532022
91	0x3e2dbdcd	0.16966935
92	0xbe1eb17d	-0.15497394
93	0x3ec3739e	0.38174146
94	0x3deede75	0.11663524
95	0x3c143930	0.009046838
96	0x3e8ccf0f	0.27501723
97	0xbe54daa0	-0.20786524
98	0xbe32d16f	-0.17462705
99	0xbdaa8af2	-0.08327283
100	0x3e46a612	0.19399288
101	0x3e63e5cd	0.22255631
102	0xbced9b20	-0.029004633
103	0xbe715ba7	-0.23570119
104	0xbe7c6812	-0.24649075
105	0x3d558062	0.05212439
106	0x3e8b36c3	0.27190217
107	0x3e283d6b	0.16429679
108	0xbea6ef8d	-0.32604638
109	0x3d5a3e84	0.053282276
110	0xbdadee91	-0.084927686
111	0x3cc55f5d	0.024093324
112	0x3ec27244	0.37977803
113	0xbe9e8965	-0.309642
114	0xbd251ed8	-0.040312618
115	0x3e33ce40	0.17559147
116	0xbae7fac1	-0.0017698632
117	0xbd19945a	-0.037494995
118	0x3e7bbd7a	0.24583998
119	0x3efbb3c0	0.49160576
120	0x3dbf880a	0.09352119
121	0xbe815531	-0.25260308
122	0x3d346cbc	0.04404901
123	0xbe40603a	-0.18786708
124	0xbdd4ff77	-0.104002886
125	0x3dbb9b93	0.09160533
126	0xbdef1dfb	-0.1167564
127	0x3c2b3f5d	0.010452119
128	0xbe2ecb49	-0.17069735
129	0x3d207b1b	0.039179903
130	0x3e762bec	0.24040192
131	0x3e84e6b7	0.2595727
132	0x3e5671bd	0.20941825
133	0xbe81f87b	-0.25384888
134	0xbe5c2067	-0.21496736
135	0x3de7d9ba	0.11320825
136	0x3e0fa24b	0.14026754
137	0x3df9957d	0.12186716
138	0xbdcbb048	-0.09945732
139	0x3e766f25	0.24065836
140	0x3e487c52	0.19578674
141	0xbe880aa1	-0.2657061
142	0xbd45d63c	-0.048300013
143	0xbe1a6890	-0.1507895
144	0x391a210b	0.00014698894
145	0xbe04aa2c	-0.1295554
146	0x3e85911d	0.26087275
147	0xbd561089	-0.052261863
148	0x3dd8d2e6	0.10587101
149	0x3e310964	0.17288738
150	0x3dd8a697	0.105786495
151	0x3dfeadd8	0.12435502
152	0xbd6365a4	-0.055516854
153	0x3d0c9869	0.034325037
154	0x3e232c4b	0.15934865
155	0xbe91669a	-0.2839859
156	0x3dc197a3	0.094527505
157	0xbe93ae10	-0.28843737
158	0xbe7222d2	-0.23646095
159	0x3db23649	0.0870176
160	0xbd087d30	-0.033322513
161	0xbe65d419	-0.2244419
162	0xbe9ba3da	-0.30398446
163	0x3f2079d4	0.62685895
164	0xbd23a5f0	-0.039953172
165	0x3d042b6b	0.03226797
166	0x3e032139	0.12805642
167	0x3e8fd2b5	0.28090444
168	0x3e02c33e	0.12769791
169	0xbe1025e1	-0.1407695
170	0x3c299b2a	0.010351935
171	0xbdecd07a	-0.11563201
172	0x3b0c6bdd	0.0021426596
173	0x3e5a8b3f	0.2134218
174	0xbe971e12	-0.2951513
175	0x3e858ee6	0.26085585
176	0x3e2058be	0.15658852
177	0xbe0f8645	-0.14016064
178	0x3e6cc950	0.2312367
179	0xbe942615	-0.28935304
180	0x3e53b5fa	0.20674887
181	0x3e211bff	0.15733336
182	0x3e668e51	0.22515227
183	0x3dc2a448	0.095039904
184	0x3dc16a05	0.0944405
185	0x3ea01abb	0.31270394
186	0x3e2c3abb	0.16819279
187	0xbe50af2b	-0.20379321
188	0xbdc513a0	-0.09622884
189	0x3e8be429	0.2732251
190	0x3ea9e620	0.33183384
191	0x3ea7df47	0.32787535
192	0x3f1ce67e	0.61289203
193	0x3e924623	0.28569135
194	0xbd267d28	-0.040646702
195	0xbd178499	-0.03699169
196	0xbe416a1d	-0.18888135
197	0x3ebd77d3	0.3700548
198	0x3e6cd570	0.23128295
199	0x3e6e5920	0.23276186
200	0xbc3b6827	-0.011438406
201	0xbd92f516	-0.07175653
202	0x3e85d6df	0.26140496
203	0x3dcf144c	0.10111293
204	0xbe01dd03	-0.12681966
205	0x3cb64058	0.022247478
206	0xbf2a6100	-0.6655426
207	0xbdfe885f	-0.124283545
208	0x3d926415	0.071479954
209	0xbdd9afa5	-0.10629205
210	0x3e31d248	0.17365372
211	0x3ec1f40d	0.37881508
212	0xbe6a1a3f	-0.22861575
213	0x3dc8163a	0.097698644
214	0x3e1d0202	0.15332797
215	0xbd8ee23a	-0.06976743
216	0xbd9f74e8	-0.0778597
217	0xbc001b97	-0.007819078
218	0x3f323bef	0.696227
219	0x3eb98c47	0.36239836
220	0x3df85a08	0.12126547
221	0x3ee5625c	0.44801605
222	0xbdb03005	-0.08602909
223	0xbea7fa91	-0.32808354
224	0xbe3267f1	-0.17422463
225	0x3e6daedd	0.23211236
226	0xbd828d72	-0.06374635
227	0xbe0eb696	-0.13936839
228	0xbeefa734	-0.46807253
229	0x3e08cc25	0.13359125
230	0x3bfd4c8a	0.0077300714
231	0xbe4972ce	-0.19672701
232	0xbdce8759	-0.10084409
233	0x3e97578c	0.2955898
234	0x3d4863b2	0.0489232
235	0x3e5d74d6	0.216266
236	0x3e6b45b4	0.22975808
237	0x3e575544	0.2102862
238	0xb99e2dcb	-0.00030170227
239	0x3e6df3e2	0.23237565
240	0x3e555846	0.20834455
241	0xbda85eea	-0.082212284
242	0x3e5ee5bf	0.21767329
243	0x3edf9908	0.4367144
244	0xbe8f375f	-0.27971932
245	0x3dc79265	0.097447194
246	0x3d8d7b63	0.069083
247	0xbda7bbd0	-0.08190119
248	0xbe99afc6	-0.30016917
249	0xbc990fe5	-0.018684337
250	0xbd0e0d20	-0.034680486
251	0xbe390b43	-0.18070702
252	0x3c20112e	0.009769721
253	0x3e800259	0.2500179
254	0x3e899929	0.26874664
255	0x3e8dee75	0.2772099

lstm.weight_hh_l0 f4 [40, 10]
0	0x3e9aad47	0.30210325
1	0x3e87750f	0.26456496
2	0xbe42a9a2	-0.19010022
3	0xbe021c6e	-0.12706158
4	0xbd4e0ac2	-0.05030323
5	0x3d1e5cc7	0.038662698
6	0x3e0706a0	0.13186121
7	0x3e687882	0.2270222
8	0x3e48dec6	0.19616231
9	0x3e56c6d3	0.20974283
10	0xbf278868	-0.65442514
11	0x3e46fd9a	0.19432679
12	0x3f03ffaa	0.5156199
13	0xbdb39ce7	-0.08770161
14	0x3b47ed73	0.003050652
15	0xbec606b7	-0.38676998
16	0xbeeb2307	-0.4592516
17	0xbf1c9ca8	-0.6117654
18	0xbe2fab9f	-0.17155312
19	0x3f0d13f8	0.55108595
20	0x3e89639b	0.26833805
21	0xbea41d7d	-0.32053748
22	0x3e6d638e	0.23182508
23	0x3ea327f7	0.31866428
24	0x3e680c8a	0.22661033
25	0xbea425d6	-0.32060117
26	0xbe88cd88	-0.26719308
27	0xbe453205	-0.19257362
28	0x3de9021d	0.11377356
29	0x3ea89a48	0.32930207
30	0xbf0b3111	-0.54371744
31	0x3e48c793	0.19607382
32	0x3f0692db	0.52567834
33	0x3ddc9d1a	0.10772152
34	0xbf4e0716	-0.8047956
35	0xbf827706	-1.0192573
36	0xbf0bc64e	-0.54599464
37	0xbf0f67f5	-0.56018
38	0xbf09c2d1	-0.5381289
39	0xbebb0ad0	-0.36531687
40	0x3ec223e9	0.37918022
41	0x3d119a91	0.035547797
42	0x3db1cbe2	0.08681466
43	0xbcd78961	-0.026310625
44	0xbf485119	-0.78248745
45	0xbdd9c06a	-0.10632403
46	0xbed20562	-0.41019732
47	0xbf4bfacf	-0.7967958
48	0x3ea8cca6	0.32968634
49	0xbcc9f4c3	-0.024652844
50	0xbe8ea2ca	-0.27858573
51	0x3e9ada1d	0.30244532
52	0x3ec6c0b1	0.38818887
53	0xbe0e04dd	-0.13869043
54	0xbf89a900	-1.07547
55	0xbf131eb7	-0.5746874
56	0xbf3a078e	-0.7266778
57	0xbf3797c4	-0.7171595
58	0x3dbcc8a3	0.09217956
59	0xbe3e9e1c	-0.18615001
60	0xbf97442f	-1.1817683
61	0x3e95c281	0.29249957
62	0x3e9270db	0.28601727
63	0xbf1d46b0	-0.61435986
64	0xbeb59a23	-0.3546916
65	0xbfabc09c	-1.3418155
66	0xbde3b6c7	-0.111188464
67	0xbfa72c43	-1.3060383
68	0xbebb30f0	-0.36560774
69	0x3fd42d6c	1.6576362
70	0x3cc38b12	0.023870025
71	0x3f14c52b	0.58113354
72	0xbe5ebe3f	-0.2175226
73	0x3e573993	0.21018057
74	0xbea77cbd	-0.32712355
75	0xbf32a698	-0.6978545
76	0xbede9fbd	-0.43481246
77	0xbf28a1b9	-0.6587177
78	0xbe14d4f1	-0.14534356
79	0xbe48451c	-0.19557613
80	0xbdbe8602	-0.09302904
81	0x3e123363	0.14277415
82	0xbe177688	-0.1479131
83	0xbdad1801	-0.08451844
84	0xbef6de9f	-0.4821672
85	0x3eb1ab45	0.3470098
86	0xbe8b3347	-0.2718756
87	0xbdb8c70b	-0.090223394
88	0xbd95f148	-0.07321411
89	0x3c50a8b1	0.012735532
90	0xbdb6c274	-0.08923808
91	0x3dc48ea8	0.09597522
92	0x3edbc65c	0.42924774
93	0xbe72d181	-0.23712732
94	0xbee84f90	-0.453732
95	0xbf31aabe	-0.69401157
96	0xbeb8a6ce	-0.36064762
97	0xbe86763e	-0.26262087
98	0xbe8d08a9	-0.2754567
99	0x3ecad42c	0.39615
100	0x3e62a649	0.22133745
101	0x3e84f032	0.25964504
102	0xbe9c49a7	-0.30524942
103	0x3ec28db3	0.37998733
104	0xbf217367	-0.63066715
105	0xb9ae2090	-0.00033212127
106	0xbe95c098	-0.292485
107	0xbef35237	-0.47523662
108	0x3e869113	0.26282558
109	0x3c0039ba	0.007826263
110	0x3e847d74	0.25876963
111	0x3e594e42	0.21221259
112	0xbdd5335f	-0.10410189
113	0x3e80f812	0.25189263
114	0xbe227f20	-0.15868807
115	0xbdd6320b	-0.10458764
116	0xbeb5e5e8	-0.35526967
117	0xbcb2f76b	-0.021846494
118	0xbdada825	-0.08479337
119	0x3d289520	0.04115784
120	0x3e0eb4e1	0.13936187
121	0x3e9b1a23	0.30293378
122	0xbe9464e0	-0.28983212
123	0x3b8653be	0.0040993383
124	0xbe5bb881	-0.21457101
125	0xbeb29e4e	-0.34886402
126	0xbd957fa6	-0.07299738
127	0xbe87d23a	-0.26527578
128	0x3e7f532d	0.24934073
129	0x3da7d615	0.0819513
130	0xbb2f03ec	-0.0026705218
131	0xbc5733ba	-0.013134891
132	0xbe86c30f	-0.26320693
133	0xbe254571	-0.16139771
134	0xbeb883b1	-0.36037973
135	0xbeca81b8	-0.39552093
136	0xbf79016e	-0.97267807
137	0xbe23094a	-0.15921512
138	0xbe4f1952	-0.20224503
139	0x3e0c28b5	0.13687404
140	0x3e3f5e69	0.18688358
141	0x3d16bae7	0.036799338
142	0xbe2fc1ff	-0.17163847
143	0x3cc4a81d	0.024005944
144	0xbf09c17a	-0.53810847
145	0xbe831c35	-0.25607458
146	0xbf41d0df	-0.75709337
147	0xbf875c5c	-1.0575061
148	0xbce79329	-0.028268414
149	0x3dfe32b3	0.12412014
150	0xbdf40bf4	-0.119163424
151	0x3d73657b	0.05942295
152	0xbe18d754	-0.14925891
153	0xbb74aa0b	-0.0037332799
154	0xbf6676e4	-0.9002516
155	0x3d4a2a46	0.04935672
156	0xbf3e78fa	-0.74403346
157	0xbf3ea70d	-0.7447365
158	0xbd32d88c	-0.043663546
159	0xbe94fbae	-0.29098266
160	0xbee5bad8	-0.44869113
161	0x3f5d5b7c	0.8646772
162	0xbd6ca873	-0.057777833
163	0x3dbaeccb	0.09127196
164	0xbfc372a6	-1.5269363
165	0xbfba5d43	-1.4559711
166	0x3d16a9ce	0.036783032
167	0xbf9587b5	-1.168204
168	0x3ed5cc23	0.41757306
169	0xbec923e9	-0.3928521
170	0xbf719472	-0.94367135
171	0x3f544608	0.8291936
172	0xbede8b4a	-0.43465644
173	0x3e5037e6	0.20333824
174	0xc0048709	-2.070742
175	0xbf7fb9c9	-0.9989286
176	0xbf0e7170	-0.5564184
177	0xbed90a66	-0.42390746
178	0xbe8f637d	-0.2800559
179	0x3e83080b	0.25592074
180	0x3eb0a3f5	0.3450009
181	0x3f17bcba	0.5927235
182	0xbec351f1	-0.38148454
183	0x3e53bb9c	0.20677036
184	0xbeaac36b	-0.33352217
185	0x3b1e3b99	0.002414441
186	0xbeb2bf2a	-0.34911472
187	0xbee3a0fe	-0.44458765
188	0x3ecb6afd	0.39730063
189	0xbeb1202e	-0.34594864
190	0x3e683a3f	0.22678469
191	0xbe39d2e5	-0.18146856
192	0x3d8dedb5	0.06930105
193	0x3e18e22e	0.1493003
194	0xbe1a6d87	-0.15080844
195	0x3dd12456	0.10212009
196	0x3ea7adaa	0.32749683
197	0x3ed2fbcf	0.4120774
198	0x3e1e99d7	0.15488373
199	0xbeb5a568	-0.35477757
200	0xbe17f677	-0.14840113
201	0x3deeb850	0.116562486
202	0xbe2b9706	-0.1675683
203	0x3d7704a8	0.060307175
204	0xbbf8c035	-0.0075912722
205	0xbd2270e9	-0.03965846
206	0xbe915573	-0.28385505
207	0x3e0157d8	0.12631166
208	0x3e8b0fd3	0.2716051
209	0x3f0369b8	0.5133319
210	0xbd9aef31	-0.075651534
211	0xbd13b07c	-0.03605698
212	0x3c727d9b	0.0148004545
213	0xbe43b24f	-0.19110988
214	0xbf81dd5c	-1.0145679
215	0xbe902cfa	-0.28159314
216	0x3f13ef30	0.57786846
217	0x3e8ada2d	0.2711958
218	0x3e1c14eb	0.15242355
219	0xbe8424a5	-0.25809208
220	0x3e4e2492	0.20131138
221	0x3e2198cc	0.15780944
222	0x3dd07e44	0.10180333
223	0xbe2a8840	-0.16653538
224	0xbdb96e4a	-0.09054239
225	0x3ea61c56	0.32443494
226	0xbcdadbbb	-0.026716104
227	0xbc05ba18	-0.008162044
228	0xbd423acb	-0.04741935
229	0x3d8358c6	0.064134166
230	0xbe3f72e2	-0.18696168
231	0xbdd8462e	-0.10560261
232	0x3e00479a	0.12527314
233	0xbe012dde	-0.12615153
234	0x3ce54fea	0.027992208
235	0xbe418abe	-0.18900582
236	0xbe69c800	-0.228302
237	0xbdf38cb7	-0.118920736
238	0x3d0efab2	0.03490705
239	0x3d933912	0.0718862
240	0x3db9ed77	0.09078496
241	0x3eb0ace8	0.34506917
242	0x3e382496	0.17982706
243	0x3e1b17e7	0.15145837
244	0x3f2a5603	0.66537493
245	0x3ed59c25	0.4172069
246	0xbe351e6d	-0.17687388
247	0xbd3fb745	-0.04680564
248	0x3e8b72f0	0.27236128
249	0xbdedce74	-0.116116434
250	0x3ea34ff2	0.3189693
251	0x3e4f3ebf	0.2023878
252	0x3d02550a	0.03181938
253	0xbd85850f	-0.065195195
254	0x3f5e0a6d	0.8673466
255	0x3e7ee9b6	0.24893841
